model/final_crime_lats.pth (torch, 2207 bytes, 4 tensors)

linear1.weight f4 [10, 11]
0.15285753 -0.21153371 0.024882905 -0.029622884 0.1258774 -0.07560539 0.26633158 -0.19125108
0.044049725 0.34650582 0.14506955 0.06563285 0.29022545 -0.11274166 0.20326549 0.25844803
0.0031939384 -0.14964497 0.032241985 0.2566126 0.03543823 -0.20386022 0.10991777 -0.27597836
-0.14433797 -0.00025044294 0.23512718 -0.044941638 -0.15474711 0.22577499 0.23590606 0.24332002
0.19287583 -0.041714106 -0.2712968 -0.33350423 0.23168439 0.013377715 -0.23714851 -0.22598273
0.14679642 0.15928926 0.2613164 0.13004388 0.26968122 -0.023454746 0.08385858 -0.24276534
-0.27096266 -0.0846474 -0.19270258 -0.03297738 -0.21903075 0.10336561 0.113377444 0.00072003406
0.2726245 0.024691544 0.27132705 -0.30411053 -0.24105553 -0.3005942 0.14326961 -0.1937368
-0.08476638 -0.14737698 0.0808572 -0.09697267 0.09879681 -0.045648683 -0.109065175 -0.080239
-0.028643653 0.08388159 0.13448764 0.24928191 0.0776629 0.10779269 -0.030316109 -0.07088262
0.06165051 0.1902989 -0.17348732 0.028445015 -0.071090855 0.10543655 -0.24252896 0.13329346
0.10561999 -0.097214356 -0.09248989 0.23162688 -0.07134985 0.12573269 -0.22343521 0.15400113
-0.1450138 0.2079025 0.19177069 -0.11140069 -0.24072337 0.02112619 -0.017948221 0.04864764
-0.17873755 0.25953516 0.24518058 0.2629454 -0.15023927 -0.18716991
00000000: af86 1c3e 4b9c 58be 3cd7 cb3c b1ab f2bc
00000010: 01e6 003e 00d7 9abd 9d5c 883e 53d7 43be
00000020: 7c6d 343d 3669 b13e 1d8d 143e 846a 863d
00000030: 6e98 943e 19e5 e6bd d424 503e 4d53 843e
00000040: 6551 513b 883c 19be 2c10 043d ba62 833e
00000050: ad27 113d bcc0 50be 911c e13d 094d 8dbe
00000060: 55cd 13be e24d 83b9 2ec5 703e b914 38bd
00000070: 0776 1ebe 8f31 673e 5c91 713e e228 793e
00000080: 3e81 453e 69dc 2abd 6ae7 8abe 11c1 aabe
00000090: ac3e 6d3e 342e 5b3c 0fd7 72be 0468 67be
000000a0: cd51 163e b91c 233e 43cb 853e 392a 053e
000000b0: a813 8a3e 2b24 c0bc 0cbe ab3d 7a97 78be
000000c0: 9ebb 8abe 9e5b adbd d353 45be 4a13 07bd
000000d0: 9949 60be 59b1 d33d 6f32 e83d abc0 3c3a
000000e0: 7095 8b3e ec45 ca3c 61eb 8a3e 60b4 9bbe
000000f0: 43d7 76be 7ce7 99be 45b5 123e f162 46be
00000100: ff99 adbd fee9 16be 7698 a53d 9b99 c6bd
00000110: fb55 ca3d 1dfa 3abd 905d dfbd 5854 a4bd
00000120: 18a6 eabc 1cca ab3d 21b7 093e c243 7f3e
00000130: ba0d 9f3d 6ac2 dc3d 7d59 f8bc e82a 91bd
00000140: 3f85 7c3d b7dd 423e a9a6 31be 8505 e93c
00000150: 1598 91bd 1eef d73d 8359 78be 157e 083e
00000160: 4b4f d83d 5218 c7bd 576b bdbd 992f 6d3e
00000170: df1f 92bd 12c0 003e 33cc 64be 79b2 1d3e
00000180: 7f7e 14be 65e4 543e 895f 443e 0c26 e4bd
00000190: 3080 76be d510 ad3c 2608 93bc bf42 473d
000001a0: fa06 37be cbe1 843e 9e10 7b3e c8a0 863e
000001b0: 53d8 19be 78a9 3fbe

linear1.bias f4 [10]
-0.066412896 0.053287547 -0.12526257 -0.09903916 -0.31740707 0.05142377 0.2308254 0.09584649
-0.031267755 0.2408708
00000000: 7c03 88bd 0b44 5a3d d544 00be 0bd5 cabd
00000010: 2e83 a2be bba1 523d 7e5d 6c3e 2a4b c43d
00000020: 9e12 00bd d6a6 763e

linear2.weight f4 [6, 10]
0.22642402 0.12557001 -0.015833179 -0.015375213 -0.14733444 -0.01023504 0.0002699342 0.25219432
-0.1612422 -0.1623845 -0.022865232 -0.041906506 -0.1595243 0.13886018 -0.04688951 0.10054824
0.26079166 0.16237521 -0.102781154 -0.25454578 0.01225748 -0.11549001 -0.16953567 0.08413371
0.11275842 0.023228586 0.007244643 0.16853859 0.005650171 0.31244656 -0.23136011 0.031148914
0.06374279 -0.026478577 0.008764563 -0.057009466 0.18886483 0.046100236 0.050961543 0.1238357
0.12069807 0.1385653 0.035578195 0.009838618 -0.1669391 -0.012075993 0.06730378 -0.09309963
-0.087746084 0.011497446 -0.09242038 -0.05947569 -0.21509832 0.13522696 0.106792614 -0.02908458
0.17539069 0.02841443 0.033407472 0.10959958
00000000: b3db 673e 6d95 003e 95b4 81bc 51e8 7bbc
00000010: d7de 16be dfb0 27bc f485 8d39 9d1f 813e
00000020: ad1c 25be 1f48 26be de4f bbbc 28a6 2bbd
00000030: 575a 23be 5d31 0e3e 370f 40bd 3cec cd3d
00000040: 7c86 853e b045 263e ed7e d2bd d353 82be
00000050: 99d3 483c 0786 ecbd c29a 2dbe 4b4e ac3d
00000060: e3ed e63d e049 be3c 7864 ed3b 6195 2c3e
00000070: 1225 b93b fff8 9f3e aae9 6cbe 022c ff3c
00000080: 948b 823d 9ae9 d8bc 3e99 0f3c c282 69bd
00000090: c865 413e 9ad3 3c3d 0dbd 503d 929d fd3d
000000a0: 8d30 f73d 10e4 0d3e 71ba 113d 2832 213c
000000b0: 15f2 2abe 63da 45bc 90d6 893d 05ab bebd
000000c0: 38b4 b3bd c95f 3c3c e546 bdbd c89c 73bd
000000d0: bc42 5cbe f078 0a3e 16b6 da3d c942 eebc
000000e0: 9e99 333e 61c5 e83c 46d6 083d bf75 e03d

linear2.bias f4 [6]
0.00042503423 0.23359925 0.13669032 0.080323346 -0.1078157 0.061741017
00000000: 21d7 de39 a434 6f3e 8cf8 0b3e 9180 a43d
00000010: 7ace dcbd 26e4 7c3d
